…
          "author_association": "NONE",
          "body": "@kglspl @mptorr I tried to set the sample weights like suggested. I have a binary pixel-wise classification task that i want to perform that takes in 100x100 images and outputs the same resolution images basically. On final layer I reshape the output so it is the same as in @mptorr arcitecture above. Here is my arch:\r\n```_________________________________________________________________\r\nLayer (type)                 Output Shape              Param #   \r\n=================================================================\r\ninput_1 (InputLayer)         (None, 100, 100, 3)       0         \r\n_________________________________________________________________\r\nzero_padding2d_1 (ZeroPaddin (None, 104, 104, 3)       0         \r\n_________________________________________________________________\r\nconv1 (Conv2D)               (None, 102, 102, 32)      896       \r\n_________________________________________________________________\r\npool1 (MaxPooling2D)         (None, 51, 51, 32)        0         \r\n_________________________________________________________________\r\nconv2 (Conv2D)               (None, 49, 49, 32)        9248      \r\n_________________________________________________________________\r\npool2 (MaxPooling2D)         (None, 25, 25, 32)        0         \r\n_________________________________________________________________\r\nfc6 (Conv2D)                 (None, 25, 25, 64)        73792     \r\n_________________________________________________________________\r\ndropout_1 (Dropout)          (None, 25, 25, 64)        0         \r\n_________________________________________________________________\r\nfc7 (Conv2D)                 (None, 25, 25, 64)        4160      \r\n_________________________________________________________________\r\ndropout_2 (Dropout)          (None, 25, 25, 64)        0         \r\n_________________________________________________________________\r\nscore_fr (Conv2D)            (None, 25, 25, 2)         130       \r\n_________________________________________________________________\r\nup_sampling2d_1 (UpSampling2 (None, 100, 100, 2)       0         \r\n_________________________________________________________________\r\nreshape_1 (Reshape)          (None, 10000, 2)          0         \r\n=================================================================\r\n```\r\nThen I try setting sample_weight to this (where 13000 is number of training samples):\r\n```\r\nsample_weight = np.zeros((13000,10000,2))\r\nsample_weight[:, 0] += 1\r\nsample_weight[:, 1] += 10\r\n```\r\nBut I get this error:\r\n```\r\nValueError: Found a sample_weight array with shape (13000, 10000, 2). In o
…
